freshpi_1.pt (torch, 76116 bytes, 10 tensors)

bias f4 [32]
00000000: 02bb ae3a d0a9 dcba 4899 5aba 1115 f2bc
00000010: 96cd fb3c 184c ab3d 5cfe 203c 6ac2 5e3d
00000020: 6fbe 893d df76 1c3d e25a f6bb 0000 0000
00000030: df9e 70bd f7bc 103d 41c5 35bb 5329 e8ba
00000040: 0000 0000 cd72 283d 7d90 073a 0831 873c
00000050: 0000 0000 2e7f e53c 0000 0000 96d0 013d
00000060: 5823 8b3c 312a f139 9809 993c 0000 0000
00000070: f73e 80bd 4413 073d 314b 713d f740 d6bc
0.0013330879 -0.0016835276 -0.0008338881 -0.02955106 0.03073768 0.08364123 0.009826269 0.054384626
0.067257755 0.0381993 -0.0075181583 0.0 -0.05874526 0.03533646 -0.002773598 -0.0017712511
0.0 0.041125108 0.0005171372 0.016502872 0.0 0.028014746 0.0 0.031693064
0.016984627 0.00045998537 0.018681332 0.0 -0.062620096 0.032977358 0.0589096 -0.026154025

weight f4 [32, 3]
00000000: 9e32 e23d 2ddf 673e 23a3 81be 95f8 543d
00000010: 967d 533e b540 353d 1453 c33d 5602 16be
00000020: 9bcf 1f3e a25c 163e e420 163d c611 47be
00000030: 1f62 73be 612c 423e 8406 8e3e 08c3 8fbe
00000040: 8af3 093f 8d5e 04be cdb6 63bd 09d3 0c3e
00000050: 68c7 a63d 40f8 8e3e 2ffd 5cbe 8950 99bd
00000060: 10da a83e f20f c5be 521f 48bd 17c9 b43d
00000070: 3d10 df3e 36f7 89be 2b7f 56bd c0cf 9d3d
00000080: fcec c0bd fab5 a0be 99fd 873e a76d b5be
00000090: e8a7 c73d b8ca d13e e90e fabe 1989 b83e
000000a0: 563e 8fbe 9f78 ca3c 6f4f 18be 8e18 95bd
000000b0: cfc0 833e 3c66 b63d d515 5a3e db24 e83d
000000c0: b993 c0be f6a1 24be fcac 1cbe 3c5b 9cbe
000000d0: f65e 013f 93cc 573e 0f56 ac3e 0f75 b83e
000000e0: 2025 353e 7cf1 85be 8804 7f3d 8f2b 5c3e
000000f0: d103 65be c80e 12be 84fe 95be 948d 133e
00000100: 5eec d43e 000e 14bf 889d f8bd 45d9 b5be
00000110: cec3 0b3e 3f2a b53e a761 acbd 0c24 c33e
00000120: 7df3 d9bd 63ad 8ebe 3912 c53e 974a 5c3d
00000130: 2ea0 903e f7df 26be 06ff b13e eb24 653e
00000140: 0c53 03be ec39 b2bd ae6e 38be a79f 84be
00000150: 8053 863e 5a4a 9dbd b77f 583e fab7 333d
00000160: 1a57 e73e acfc 0ebe 72dd 9d3e 45da ddbe
00000170: e8d7 013e 59bc b0be 6f75 1bbd 79a3 743e
0.11044811 0.22643729 -0.25319776 0.05199488 0.20653376 0.044251163 0.0953733 -0.14649329
0.15606539 0.14683774 0.03665246 -0.19440374 -0.23767899 0.18962242 0.27739346 -0.28078485
0.53887236 -0.12926693 -0.055594254 0.13752379 0.081435025 0.27923775 -0.21580957 -0.07486064
0.32978868 -0.38488728 -0.048857994 0.08827417 0.43567076 -0.2694642 -0.05236737 0.07705641
-0.09420201 -0.31388837 0.26560667 -0.3543522 0.097488225 0.40974975 -0.488395 0.36042097
-0.27977246 0.02471572 -0.14874052 -0.07280074 0.2573304 0.089062184 0.21297391 0.113351546
-0.37612703 -0.16077408 -0.15300363 -0.30538356 0.50535524 0.21074133 0.33659407 0.3602681
0.17689943 -0.261608 0.06226018 0.21500991 -0.22364737 -0.14263451 -0.29295743 0.14409477
0.41586584 -0.5783386 -0.12139422 -0.35517326 0.13648912 0.35383794 -0.08417063 0.3811344
-0.10642145 -0.2786666 0.38490465 0.053782072 0.28247207 -0.16296373 0.3476488 0.22377364
-0.12824649 -0.08702454 -0.18010971 -0.25903055 0.2623558 -0.07680197 0.2114247 0.043876626
0.4518364 -0.13963574 0.30833012 -0.4333059 0.12680018 -0.34518698 -0.03795379 0.23890485

bias f4 [64]
00000000: d0c2 94bc 0000 0000 0000 0000 761d aa3c
00000010: 01f2 65bc d3bd 273d 7ea8 113d 0fa4 903c
00000020: 3e4e 0a3d ff47 56bc 9bba 5a3c 6c50 053d
00000030: dadf f53c 0000 0000 9a36 4a3d 8b56 1e3d
00000040: bed4 843d 7003 0b3d 0000 0000 0000 0000
00000050: b3fa 163d 0000 0000 ebf8 833c 0000 0000
00000060: 0000 0000 93bd 003e 267d 6a3d 951e a63c
00000070: e570 073d 2757 933b 0b72 7dbc bece 8fbc
00000080: 4958 2b3d 0000 0000 ec1d 1abb b0af b23c
00000090: 6eef 9a3a dc57 333d cf2d bb3c f992 1c3d
000000a0: 47cf d6bb ca54 80bc 8879 633d 1d12 f03c
000000b0: d77d 59bc 686f 9d3b 0000 0000 0871 403d
000000c0: 0000 0000 106b 673d 0000 0000 1e92 9c3b
000000d0: 25ef 20bc a2e3 303d 3197 e63c ed65 163d
000000e0: c0ab d13c bf3b 3e3d 4179 d2bc c3f9 9dbc
000000f0: ee85 fd3c 0000 0000 b24a ca3c 0000 0000
-0.0181593 0.0 0.0 0.020766001 -0.014034749 0.040952515 0.035561077 0.017656354
0.033766024 -0.013078689 0.013350154 0.0325474 0.030013967 0.0 0.04936848 0.038656753
0.0648589 0.033938825 0.0 0.0 0.03686018 0.0 0.016109904 0.0
0.0 0.12572317 0.057248257 0.020278255 0.03306665 0.0044964734 -0.0154690845 -0.017554637
0.041832242 0.0 -0.002351637 0.02181229 0.0011820623 0.04378496 0.022848992 0.0382261
-0.006555471 -0.01566543 0.055535823 0.029305512 -0.013274631 0.0048045404 0.0 0.046982795
0.0 0.056498587 0.0 0.0047781607 -0.0098226415 0.043185838 0.028148266 0.036718298
0.025594592 0.046443697 -0.025692584 -0.019284135 0.030947652 0.0 0.02469382 0.0

weight f4 [64, 32]
00000000: a49c 27bd f520 06be 03ab a0bd 8b94 3f3e
00000010: 276b 9f3d 6211 433e 7327 9ebb be14 37bd
00000020: 7cbe cc3d 8fb0 78be 468c 56be c49c 88bd
00000030: 73e2 33be 7815 13be 5a94 89bc 87e5 e03d
00000040: 0804 fbbd a67b 35bd 9ab2 2ebe f8dc 283e
00000050: 4420 03be 2b73 f63c 8662 2b3e 4ba6 883d
00000060: 4cbf 05be 76e1 f63d f8a5 34bd a8f1 83bd
00000070: f83e 3cbe e96e 5d3e 902a 3dbd e830 143d
00000080: 643e 57be f0a4 83bc 7cd2 073e 347d 99bd
00000090: a67d 6bbe 502e 37be 4c5a f73d faf2 0d3e
000000a0: 5885 bcbd e69f 08be ecfc 513e 9056 11be
000000b0: bee5 41be 3271 15be 6050 083c 40e8 413e
000000c0: 36de 73be 6427 6fbe e017 1ebe d422 a63d
000000d0: 76fe 27be 48bc dc3d 806c 133b 6cab 403e
000000e0: cc1c bcbd f251 013e 38f0 3dbe 7aa8 2abe
000000f0: f83e dcbd c01c 9ebb fcbb 46be 2467 773e
00000100: c861 8fbd 387a 37bd 8637 64be a03a 26be
00000110: 78e8 7bbd 164c 263e d042 9d3c 00eb 0bbd
00000120: 7c54 aebd 7260 7dbe 4876 60be f498 c7bd
00000130: c437 6b3e 08c8 bd3d 50f9 3fbd 62d8 49be
00000140: a01d 2f3e 4cc9 e53d 44d5 7fbe 4055 cb3b
00000150: 9a76 6a3e 52c1 38be a0f1 a9bd f43a bd3d
00000160: 18c2 483d 9497 47be 30f9 ebbd 4008 ba3c
00000170: e63d 42be b849 debd 4844 8c3d 900f 32be
00000180: 5de4 2cbe 07ab 173c 5ccf 4abd a3aa 653e
00000190: 9cab 663e 7165 e23d 2a95 51be 7a6f afbd
000001a0: 8272 babd 523e 523d 6272 293e a695 4abe
000001b0: 38b8 ef3e eb9e 84bd cd05 ed3e 394a a8bd
000001c0: d06c fdbd 0273 073e 1395 813e 84b3 1a3f
000001d0: 3883 3c3e c795 09be f84c 333e b7e1 a4bd
000001e0: 139f eb3e 7f17 1bbd e578 993b 687b 3e3d
000001f0: 64ba 84be be81 11be 3492 8ebd f9a8 25bd
00000200: 315e 033d d29b 923d 0e9a 79bd 960a 6abe
00000210: 9b23 db3d 0a4f ebbd 987d 093e f411 bf3d
00000220: 04a0 1c3e fccc cb3c f08a 683e 3e3e 723e
00000230: 8011 9abd 3b4b e53d c230 0a3e 50d9 3b3d
00000240: 8cf3 6e3e a3e2 3cbe da73 82bd 80e8 f2bd
00000250: 30c0 2cbd f8f8 47bd 64d2 b9bd 846f 05be
00000260: 5537 353e 2efa 81be 952d 62be 00e0 ab38
00000270: cc8c 343e a871 ebbd a57c 1f3e 7805 62bd
00000280: e5b0 cc3d 3882 1abd f465 2dbd 8c1b 7e3e
00000290: b0d9 a2be e4b9 c1be e6f8 c9bd 3076 893e
000002a0: d629 62bc d2bf e7bc 05e8 6bbe 10a2 e8bc
000002b0: 86e2 c33a a1eb 8fbd 7cb9 9dbe ef22 593e
000002c0: 32cc 733e aaef 213e daad b53d 932f e0bd
000002d0: 30d3 593d 6b4b da3d 12cd 0a3e cb35 f03d
000002e0: e230 67be 71c6 6abd 92fe 5dbe 9267 1ebe
000002f0: 6b4d b03d 0a42 5ebe 5357 a53e d6a8 88be
00000300: d2a2 c73b 5f25 413e 035b a83e e311 f13d
00000310: e260 8b3d 364a 963c 2d56 cc3d 130b 713e
00000320: a388 35bd 6c14 3fbe f038 f0bd f892 21be
00000330: 3fea 5dbe e940 963e 0c23 7abe 0b3c 34bd
00000340: 94d1 88bd 70c1 973d eec9 58bd 0562 7abd
00000350: 4849 f6bd f3b3 3bbe 200a 1cbc 8def 2fbc
00000360: 7be6 13be 51d2 e6bb 51fd 783d 00fd ed3a
00000370: 63ab 893e 0696 263e ee12 38bd fdda 73be
00000380: 69eb 823e e948 703d 3980 fabc 2517 32bc
00000390: 5734 c03e c653 8c3e c183 fe3b 2c96 6abe
000003a0: 8cbf d9bd c3d9 963d ec11 a6bd 10fd 163e
000003b0: 53c2 c53e 48d6 7f3e ff08 a63e 5da8 463e
000003c0: febf 7c3e e8c1 dfbd b671 10be 942d 0d3f
000003d0: b2e7 7d3e 31bc d3bd 608a c83d 89bd 9abb
000003e0: d1f6 403f b1c1 1f3e 2a1f 18be 20ed c2bc
000003f0: 1650 92be e3ed a33d 2797 bfbd 8d57 51be
-0.04092087 -0.1309851 -0.07845118 0.18709008 0.077841096 0.190496 -0.00482648 -0.044697516
0.099972695 -0.24286102 -0.20951948 -0.06670526 -0.17566852 -0.14363658 -0.016794372 0.10981279
-0.12256628 -0.044307373 -0.17060319 0.16490543 -0.12805277 0.030084213 0.16736802 0.06672343
-0.13061255 0.12054722 -0.044103593 -0.06442577 -0.18383396 0.2162434 -0.04618317 0.036179453
-0.21019894 -0.01606986 0.13263887 -0.07494584 -0.2299715 -0.1788876 0.1207777 0.1386222
-0.09205121 -0.13342246 0.20506638 -0.14193177 -0.18935296 -0.14593962 0.008319944 0.18936253
-0.23815235 -0.2335487 -0.15438795 0.08112112 -0.16405663 0.10778099 0.002249509 0.18815392
-0.0918518 0.12628916 -0.18548667 -0.16665831 -0.10754198 -0.0048252046 -0.19407648 0.24160439
-0.07001072 -0.04479429 -0.22286806 -0.16233301 -0.061500996 0.16239962 0.019196898 -0.03415966
-0.08512208 -0.24743822 -0.2192012 -0.0974597 0.22970492 0.092666686 -0.046868622 -0.1971145
0.17101145 0.11220035 -0.24983698 0.006205231 0.22896805 -0.18042496 -0.082980394 0.0923976
0.049013227 -0.19491416 -0.11522138 0.022709012 -0.18968925 -0.108539045 0.06848961 -0.17388749
-0.16883989 0.009257085 -0.04951416 0.22428374 0.22526401 0.11054505 -0.20467058 -0.08566184
-0.09103872 0.051328965 0.1654754 -0.19783649 0.46820235 -0.06475624 0.46293488 -0.08217282
-0.1237427 0.13227466 0.25309047 0.6043017 0.18409431 -0.13436042 0.1750983 -0.08050864
0.46019801 -0.037864204 0.004683601 0.046504408 -0.25923455 -0.14209649 -0.0696148 -0.040444348
0.03207225 0.071586266 -0.060937934 -0.228556 0.107001506 -0.11489685 0.13426816 0.09329596
0.15295416 0.024878018 0.2270925 0.23656556 -0.07522869 0.1119599 0.13495162 0.045861542
0.23335093 -0.1844583 -0.06369753 -0.11860752 -0.04217547 -0.04882142 -0.09073332 -0.13030821
0.17696889 -0.25386184 -0.220877 8.195639e-05 0.17631835 -0.114962876 0.15574892 -0.055180997
0.099946775 -0.037721843 -0.04233356 0.24815196 -0.31806707 -0.37837136 -0.09861927 0.26847982
-0.01380392 -0.02828971 -0.23037727 -0.02839759 0.0014944829 -0.070273645 -0.30805576 0.21204732
0.23808363 0.15814081 0.0887105 -0.10946574 0.05317992 0.10658916 0.1355479 0.1172901
-0.22577241 -0.057318155 -0.21679142 -0.15469196 0.08608516 -0.2170488 0.32293186 -0.26691312
0.0060924077 0.18861912 0.32881936 0.1177099 0.06805588 0.018345933 0.09977374 0.2353938
-0.04431976 -0.18660134 -0.1172961 -0.1577872 -0.21671389 0.29346398 -0.24427432 -0.044002574
-0.06680599 0.07409942 -0.05292695 -0.061128635 -0.12025696 -0.18330364 -0.009523898 -0.010738266
-0.1444339 -0.0070441146 0.060788456 0.0018157065 0.2688857 0.16268167 -0.044939928 -0.23814006
0.2557023 0.058663283 -0.03057872 -0.010869776 0.37539932 0.27407664 0.007767171 -0.22908849
-0.10632238 0.073657535 -0.08108887 0.14744973 0.3862482 0.24984086 0.32428738 0.19400163
0.24682614 -0.109256566 -0.14105877 0.5514767 0.24795416 -0.10338629 0.09792018 -0.0047223014
0.7537661 0.15601231 -0.14855638 -0.02379471 -0.28576726 0.08004358 -0.09355002 -0.20443554

bias f4 [128]
00000000: a497 483d 0000 0000 dd4a 1b3d eddf 1b3d
00000010: eff4 9f3d ebd6 f8bc 0000 0000 0000 0000
00000020: 0a55 11bd 13aa 583d 0457 483d a659 3cbc
00000030: 0000 0000 3811 5d3d 077e 243d 0420 b6bb
00000040: dbb8 153d fe4c 2bbc 0000 0000 bcc3 cebc
00000050: ec1b b8bc 0000 0000 078e eebc e390 1ebc
00000060: eb5a 0ebc 0000 0000 7ea6 1ebb 0000 0000
00000070: 0000 0000 4366 533d cfb6 753d f425 143c
00000080: 751d 85bc 18ea 453d 7883 763a bcfe 1f3d
00000090: 037a a83c 1e3f 303d 89f2 253d e1a7 1cbb
000000a0: c592 c6bc 65e6 543d b43f 203c 3022 b6bb
000000b0: 1f26 bc3d 3811 243d 82d5 f03c bb7e 83bc
000000c0: 4ae1 11bc 0e0f 4ebc 0000 0000 75c1 aebc
000000d0: 0ac9 3a3d 55c6 bf3c a770 d13c 8197 5b3d
000000e0: 5f1c 473d 9f7e 28bc 57c8 c4bb 0000 0000
000000f0: 275e dbbc 1e8f 893c b280 8abc db17 7bbc
00000100: d76b 0b3d 07e3 033d c25d 7fbc 8dc6 c4bb
00000110: 393d f43c e02e 5cbb 94d2 31bc 9d2d a23c
00000120: 3ebb a93d 6398 663d c9f9 50bc 29fd ef3d
00000130: c5e0 563d d38e 423d 9fea 473d 0000 0000
00000140: 2bc5 4f3d 519d 0d3d c6b1 af3c ad85 293d
00000150: 3021 753d 0e2b e3bb 3324 b93c 6bc6 81bc
00000160: 4d99 4e3d 19eb 21bc a7cb 283b 6557 6d3d
00000170: a672 45bb 7482 133d 5096 c43c 5da5 193d
00000180: 4613 1abc 2509 503d a4f7 a23c 3853 913d
00000190: c05d 1dbc 638a a13d b8fc 703d 791c b6bb
000001a0: 6be6 303d 22e6 553d cbad 193d 3d51 193d
000001b0: 1eda 3d3d 0000 0000 0000 0000 7a36 d8bb
000001c0: 0000 0000 0000 0000 679f 20bc 2ce8 e63c
000001d0: 0000 0000 fbc5 053d 0000 0000 ba8a 4a3d
000001e0: c699 073d 085b e33c 0000 0000 72e5 f73c
000001f0: 01e9 1c3d 87d6 633c 93c1 9f3d 60a0 61bb
0.04897274 0.0 0.037913192 0.03805535 0.07810389 -0.030375918 0.0 0.0
-0.03548149 0.05289657 0.04891111 -0.011495983 0.0 0.0539715 0.04015925 -0.005558016
0.036553245 -0.010455368 0.0 -0.025239818 -0.022474252 0.0 -0.029120458 -0.009678098
-0.008688669 0.0 -0.0024208124 0.0 0.0 0.051611196 0.059988793 0.009042252
-0.016249398 0.048318952 0.00094037456 0.039061293 0.020565992 0.043028943 0.040514503 -0.0023903775
-0.024239907 0.051977534 0.009780813 -0.0055582747 0.091869585 0.040055484 0.029398683 -0.01605164
-0.008903811 -0.0125768315 0.0 -0.021332482 0.045601882 0.023410002 0.025566412 0.053611282
0.04861104 -0.010284095 -0.0060053277 0.0 -0.026778294 0.016791876 -0.01690707 -0.015325512
0.03403839 0.032198932 -0.015586318 -0.0060051144 0.02981435 -0.0033597276 -0.010853428 0.01979714
0.08287667 0.05629767 -0.012754866 0.11718208 0.05246045 0.04749949 0.048807736 0.0
0.050725143 0.034573857 0.021447074 0.04138725 0.059846103 -0.0069326228 0.022600269 -0.015841683
0.050439168 -0.009882712 0.0025756152 0.057944674 -0.003012815 0.03601308 0.023997456 0.03751122
-0.009404009 0.05078997 0.019893475 0.07095951 -0.009604871 0.07887723 0.05883476 -0.0055575934
0.043188494 0.052221425 0.037519258 0.03743099 0.04635059 0.0 0.0 -0.006598291
0.0 0.0 -0.0098036295 0.02818688 0.0 0.032659512 0.0 0.049448706
0.033105634 0.027753368 0.0 0.030260775 0.038308147 0.013906128 0.07800593 -0.0034427866

weight f4 [128, 64]
00000000: 831c dbbd 1184 2ebe f01e 28bd 6879 d83d
00000010: 1a70 c9bd c86f d43b eb6b 843c 77d2 8d3e
00000020: 4bfe 4c3e 3712 09be 0d95 653d 8b6c 73bd
00000030: 6cfd 203e f554 2b3e a75f 323e 8d27 9bbc
00000040: 5a2a ae3d 89ef 863e b8cc 5a3d 78c6 46bd
00000050: eab8 c23d 47ba a2bd 993f 033c 9613 2cbe
00000060: c0e0 713b c0e3 933f 2ca9 ce3d 4512 5a3e
00000070: eddf ce3b 58fc 79bd f8ba fcbd 3331 03be
00000080: 69c1 073e 3e67 a63d cb0f 1e3e c0d3 eb3b
00000090: 2e90 1cbe 0bb5 8bbc 1dde c3bd 4e3c ef3d
000000a0: 87cf 96bd 8c5f 96bd 941a dc3d 38c2 043e
000000b0: d4b0 a43d fbca 8dbd 16ad f03d de5e bf3d
000000c0: 98a5 9abd c79e 753e 4027 76bc e655 d0bd
000000d0: 996f 113d adcc 59bd 658c 0d3d 4f8c 513e
000000e0: 31d8 9bbd fcab ac3c 0881 4f3d ccc4 66bd
000000f0: 6f2e 013e 2c47 adbd 35d7 1a3e b8bc ef3c
00000100: 9f8d 01be 44e9 65bd 098e 2e3e ecc4 b4bd
00000110: 2c34 05be 5a15 b53d 7894 abbd c4d3 173d
00000120: a9e3 1ebe b1c4 283e b61b 99bd e2fd c13d
00000130: 901d 78bc cf3e 03be ac3e f1bd 95cf d8bd
00000140: 3692 b6bd 912a 03be 9167 afbd 5c1d 00bd
00000150: c67d f9bd 3253 cb3d 9d7f 9fbd f8af a4bc
00000160: 94d1 553d 18b3 de3c 8bde 29be 2e8d 2bbe
00000170: 9ac6 a23d f43b 933d 0209 e03d cb03 d8bd
00000180: cc3c 2cbe 2643 12be bb2a 2a3e 41fc 1cbe
00000190: 40f8 6a3c e092 4a3d d078 fe3c 86c5 20be
000001a0: 1d41 0f3e 58bd e8bc 9cdb 28be 5037 05bc
000001b0: e8b6 2cbe d0c7 81bc 44b2 ffbd 81ad 85bd
000001c0: 032a a1bd 5c1d 9fbd aaf0 983d ce92 a73d
000001d0: 7ae1 29be a8fa 663d 86b3 b23d a30b 82bd
000001e0: 1e1c 973d 30a3 9a3c 7fa1 093e cce4 943d
000001f0: 7d08 2e3e 1634 a73d b645 9d3d 960a e63d
00000200: c82e 51bd c0e2 f13b f5b0 c9bd dc7f 26be
00000210: 6a41 a73d 72a2 103e 2d69 463e a97a 943c
00000220: e53d 493e 675b 043b 47d4 58bd 4d2f 60bc
00000230: 68c3 c8bc 9917 dbbd 6979 e63b 2f8b b83d
00000240: e1d8 b7bd c77a 393e 873e 043e 8903 afbd
00000250: a7af 82bc 6022 f1bb 683a 4abe ed6a 103e
00000260: 5119 cdbd 9b82 a83e 8224 19be f4bf 7c3e
00000270: 99ef cb3d 4d81 36bd 66dc 0bbd ff4d 22be
00000280: 647f 4f3e 49c2 203e 668c d53d 8f41 91ba
00000290: caa7 73be 81ac c63d a268 ecbc cb8b a23d
000002a0: 3399 4fbe 596d 2abe f27f 823e 4e30 493d
000002b0: e3e7 afbd a7f2 903e 86cb a13d 65c2 e7bd
000002c0: 64e6 12be 29e2 37be c846 9dbc 21af 6fbe
000002d0: 8e75 08bc d7aa bf3d 36aa 55be bce7 903d
000002e0: 5ba5 113c 87a3 1ebd 33a1 edbd cb96 253c
000002f0: 039b 35bd 6c28 0abe 0066 453d 20dc 80bb
00000300: 8d3e b73c eb95 82bd 7c6c 2fbd 6d58 14be
00000310: cb7b 10be 351a 533e 2d70 673d dc93 61be
00000320: 71aa 58bd 2fce f23d 9d9a d43c f3e6 383e
00000330: a31f 103c 08c3 523d c89c 503d d3a9 4c3e
00000340: 5216 e2bd 5edc 983e f737 19be 4093 fb3c
00000350: 4eef d9bd 0b59 2b3e f6f6 02be e0a0 89bc
00000360: a201 a63d 2a29 093e 1ed2 76bd 5b6c 673e
00000370: 4d85 c3bb 5c3e 2fbe bd1e 8abd ee60 1f3e
00000380: bdcc f1bd d081 12bc 3185 a33c 6c63 1e3e
00000390: 7d19 93bd 11ed 123e f964 63be 229b 443d
000003a0: 8988 8abd f528 183e d256 743e 613a 013d
000003b0: 9ea6 233e 463b 823d 5ec7 26be bae4 f93d
000003c0: d7c9 233e 086b 8abc 6868 533d 2842 0fbe
000003d0: e316 a6bd 4b6b 883d 50c1 8d3b f8bc 3a3e
000003e0: 8450 33be 9e88 e9bd c1f8 88bb ba13 11be
000003f0: d06d 123e 98c8 373d f65e 19bd eec7 1ebe
-0.106987976 -0.17042567 -0.04104513 0.105700314 -0.09835835 0.006483052 0.01616474 0.27699634
0.2001888 -0.13385855 0.05605035 -0.059429687 0.15721673 0.16731627 0.17419301 -0.018939758
0.08504172 0.26354626 0.05341789 -0.04852912 0.09507926 -0.07945686 0.008010768 -0.16804346
0.0036907643 1.1553879 0.10090861 0.21296032 0.006313315 -0.06103167 -0.12340349 -0.12811737
0.13257374 0.08125161 0.15435712 0.0071968734 -0.15289375 -0.017054101 -0.09563849 0.11681424
-0.073638014 -0.07342443 0.10747257 0.12964714 0.0804154 -0.06923481 0.117517635 0.09344266
-0.07551116 0.2398635 -0.015024006 -0.10172634 0.03550682 -0.05317371 0.03455772 0.2046368
-0.076095946 0.021078102 0.050660163 -0.056340024 0.1261537 -0.084608406 0.15121157 0.029264793
-0.1265168 -0.056130663 0.1704637 -0.08826622 -0.13008183 0.08841963 -0.083779275 0.03706719
-0.15516533 0.16481282 -0.074759886 0.094722524 -0.015143767 -0.12816928 -0.11779532 -0.10586468
-0.08914606 -0.12809207 -0.085646756 -0.031278 -0.121821925 0.099279776 -0.07788012 -0.02010344
0.052201822 0.027185008 -0.165888 -0.16753075 0.079480365 0.071891695 0.10939218 -0.105475985
-0.16820067 -0.14283428 0.16617863 -0.15330602 0.014341414 0.049456477 0.031063467 -0.15700349
0.13989682 -0.028410599 -0.16490024 -0.008130863 -0.16866648 -0.015842348 -0.12485173 -0.06527234
-0.07869341 -0.07769272 0.07467778 0.08182298 -0.16589919 0.05639139 0.08725648 -0.06349876
0.0737841 0.018876642 0.13440512 0.07270202 0.16995426 0.081642315 0.07679312 0.11232488
-0.051070005 0.007381767 -0.09848205 -0.16259712 0.081667736 0.14124468 0.19376059 0.018124895
0.19652517 0.0020196082 -0.05293682 -0.013683152 -0.02450724 -0.1069786 0.007033516 0.09010922
-0.08976913 0.18113242 0.12914477 -0.08545596 -0.015952898 -0.007358834 -0.19748843 0.14103289
-0.10014594 0.32912144 -0.14955333 0.246826 0.09957809 -0.044556905 -0.034145735 -0.15850066
0.2026344 0.15699114 0.104271695 -0.001108216 -0.23794475 0.09700871 -0.028858487 0.0793682
-0.20273285 -0.16643275 0.2548824 0.049118333 -0.08589151 0.2831013 0.07900147 -0.11316375
-0.143457 -0.17957367 -0.01919879 -0.2340665 -0.0083288085 0.09358757 -0.20865712 0.0707545
0.0088895215 -0.03873017 -0.11603012 0.010106753 -0.044337284 -0.13491982 0.048192978 -0.003932491
0.022368694 -0.06376251 -0.042828068 -0.14486857 -0.14109723 0.20615466 0.056503464 -0.2202906
-0.05289692 0.11855733 0.025952632 0.1805685 0.008796605 0.051455528 0.05093077 0.19986658
-0.110394135 0.29855627 -0.14962755 0.030709863 -0.10641347 0.16733186 -0.1278952 -0.016800344
0.0810578 0.13394609 -0.060258977 0.22599928 -0.0059668184 -0.17113632 -0.06744144 0.1556432
-0.11806629 -0.0089420825 0.019960972 0.15467614 -0.07182596 0.14348246 -0.22206487 0.04799951
-0.06764323 0.14859374 0.23861244 0.031549815 0.15981528 0.06358962 -0.1628699 0.12201829
0.15994965 -0.01689674 0.05161324 -0.1399008 -0.08109834 0.066610895 0.004326023 0.18236148
-0.17511183 -0.11403011 -0.0041800444 -0.14167681 0.14299703 0.044869035 -0.037444077 -0.15505955

weight f4 [32, 128]
00000000: fa52 bf3d 80a1 ebba 7cb8 d4ba 3a60 1dbe
00000010: 8d3c 33bd 329c 1cbd e991 afbd ea0c 4f3d
00000020: 5e7c 41bd 6889 4d3d 5ea1 ebbd 86d8 5c3d
00000030: 2404 c0bc 3a35 743d bf40 7b3c 662c 9ebd
00000040: 63db 68bd 793c 36bd b6f1 3b3d 2006 f8bc
00000050: 2e43 06bd 7c0c 883c c8b4 8a3d fc9b 173e
00000060: 0750 933d 4e91 8ebd a906 85bd ee86 0cbd
00000070: 1e67 a9bd 9168 123e baca 793c becd 2a3d
00000080: c239 0d3d 0b29 b93c f807 89bd b0af a93d
00000090: d3dc 523d 74a1 8dbd 3c35 0c3e 9ed5 763d
000000a0: e91c 24bd 2fe7 0f3e 4e2e a5bd 80a5 abbd
000000b0: 564b d33d 6f6b a7bd af25 35bd c684 553d
000000c0: ba23 a3bd 7401 a7bd 168b 743d 6cd5 1abd
000000d0: 8081 cb3d f57d 983c 6814 9f3c f65d 1fbd
000000e0: 8f18 8bbd 8d88 7abd 3591 843d a28f 4e3d
000000f0: a156 e13c 2526 7f3d 1281 b4bd 9f04 4a3d
00000100: 5810 153e 1211 fcbd c270 f3bc 5eef e9bc
00000110: 7134 47bd 6112 0fbe 08be 03bc d408 523d
00000120: af9b b03d 4645 a8bd ddf1 3c3a 344a e2bb
00000130: 712f 90bc 71dc 423c adfc 90bd f03b e63b
00000140: 15e0 c53d cf76 7f3d 9b0f 18bb 8c3d b4bd
00000150: 9a79 a93d 5e66 1bbd 170c dc3c fe5d 733c
00000160: c19c 3bbd 4835 253c 52c9 1bbe dd5f ef3d
00000170: 76f4 6fbc d3c7 fb3b 3a66 9c3d 6b4b 123e
00000180: b03b e3bc 0a2b c13d bedf cdbc c277 b03d
00000190: a36b 56bd b412 f03d 6a79 073c e1a0 98bd
000001a0: 3a7c 5e3d 9e36 3d3d 019a 413d 922c 9e3d
000001b0: a623 f7bd be2d 7c3d 22be 473d 03b8 513b
000001c0: 6242 2d3d 7090 0b3d 517f 763d b6a0 05be
000001d0: c908 903d 2823 72bc da8f 1c3d 822a f03d
000001e0: 47cd 593d e4cf ebbc 881f 093d 02aa a43c
000001f0: 6067 a53d 34ea f9bd 6fe9 5e3d a429 59bd
00000200: 097a 9abd 60f8 d3bc 00ea 61bd bc6a 86bd
00000210: 4c15 60bc aa27 93bd b49a d33c a03f 433b
00000220: b6f0 2bbd fed6 543d fff3 d43c 623e a13d
00000230: d28f 91bd 08de 283c d049 783d 7735 37bd
00000240: 00f7 873d 5dcb 5cbd 4374 913d 1aa7 2f3d
00000250: 62fb 143d 20e1 a9bb 1886 14bc 5079 5a3b
00000260: 0de1 733c edff 86bd ed7a 35bd 10de 863c
00000270: 188b a53c d6e9 443d aeb5 23bb 468f eebc
00000280: 908d e93c 8674 76bb f03f cfbb f74f 1f3d
00000290: 01e1 153c 8a40 7a3d a250 aabd db27 513c
000002a0: fe99 7f3d 8edb e8bc 153a 713d c473 b83c
000002b0: 681f b3bd 1638 fe3c 54a4 c4bc cac7 4b3d
000002c0: 0829 7d3c d317 ab3d 10b5 f3bb 3e31 91bd
000002d0: f72e 9f3b b735 eabc 2948 6c3d cb46 a93d
000002e0: 8f20 acbd 93a2 9a3d f67b 543d b0b6 8dbd
000002f0: f971 10bd 013e 383c e766 a5bd 0dd1 233d
00000300: d486 3dbd 7ee0 9cbd 82d7 713d d6ee 28bd
00000310: 8891 19b9 670c 5fbc 6b58 3fbd 112a 863d
00000320: 33c1 4b3d cfc8 8ebd b1a5 8a3d 18d9 8abd
00000330: 0e2c 743d 78b1 b8bd 4cd6 83bc a133 833d
00000340: ce85 fdbc 1782 8d3c 76b0 a83b 9d8d 993d
00000350: a474 f7bc 6257 4f3d e99b d73b 6ee0 2a3d
00000360: b140 043d d6ae 643d 7c19 2e3d a8c7 1f3d
00000370: 385a 3c3c 326b 72bc a5a8 81bd 1ff3 acbd
00000380: c07f da3a 7aea 403d 740a 5b3d dbfa a7bc
00000390: 7374 f23c b7a6 46bd 2618 77bd 06a9 4d3d
000003a0: 97d8 11bd 2033 bb3b 4a5c a0bd 7de2 92bd
000003b0: 48cf a93d 4993 adbd 9228 4ebd fcaa c13c
000003c0: f097 c53c ad3e 88bd d633 393d 131e e53c
000003d0: e88b a23c b3a1 3cbd c911 b0bd d7e8 88bd
000003e0: 4090 a2bd 9f78 243d bd0a 843d 822c 52bd
000003f0: 5e68 92bc b0a0 89bb 9755 aebc 88d0 1e3c
0.093419984 -0.0017977208 -0.0016229297 -0.15368739 -0.043758918 -0.038234897 -0.08572752 0.050549425
-0.047237746 0.05017987 -0.11505388 0.05391743 -0.023439474 0.059621073 0.015335261 -0.07723312
-0.05684985 -0.044491265 0.04588481 -0.030276358 -0.03277891 0.016607516 0.067727625 0.14805597
0.071929984 -0.069613084 -0.06495411 -0.034308366 -0.08271621 0.14297701 0.015246088 0.041700117
0.03447891 0.022602579 -0.06690973 0.08285463 0.051480126 -0.0691556 0.13692182 0.060262315
-0.040066633 0.14053033 -0.080654725 -0.08381176 0.103171036 -0.08174788 -0.04422539 0.052128576
-0.07965799 -0.08154574 0.059702955 -0.03780119 0.099368095 0.018614748 0.01941891 -0.038907968
-0.067917936 -0.06116538 0.064730085 0.050429948 0.027507128 0.062292237 -0.08813681 0.049320813
0.14557016 -0.123079434 -0.029716853 -0.028556522 -0.048633996 -0.13971855 -0.008040912 0.05127795
0.08623444 -0.08216338 0.00072076713 -0.0069058184 -0.017600747 0.011893378 -0.07079444 0.007026188
0.09661881 0.062369164 -0.002320266 -0.08800802 0.08275147 -0.03793942 0.026861234 0.014853952
-0.04580379 0.010083504 -0.15213516 0.11688206 -0.014645686 0.007683733 0.07636686 0.14286582
-0.027738422 0.09432037 -0.025131103 0.08616592 -0.052348744 0.11722317 0.008268693 -0.0745256
0.05431769 0.046194665 0.04726601 0.07723345 -0.12067346 0.06156706 0.04876531 0.0032000549
0.042299636 0.034073293 0.060180012 -0.13049588 0.07032926 -0.01477889 0.038223125 0.11726858
0.053174283 -0.028785653 0.033477336 0.020100597 0.08076358 -0.12202874 0.05442184 -0.053018227
-0.075428076 -0.02587527 -0.0551548 -0.06563327 -0.013676953 -0.071853 0.025830604 0.0029792562
-0.041977607 0.051962845 0.025995253 0.07873227 -0.0710751 0.010306843 0.060617268 -0.044728722
0.066389084 -0.05390488 0.07102253 0.04288397 0.03637255 -0.0051843077 -0.009065174 0.0033336468
0.014885199 -0.06591783 -0.044306684 0.01646331 0.020207927 0.048074566 -0.0024980116 -0.029121052
0.028509885 -0.0037606074 -0.0063247606 0.03889462 0.009147883 0.061096705 -0.08316161 0.01276585
0.062402718 -0.028425004 0.058893282 0.022516139 -0.08746225 0.031032603 -0.024004139 0.04975108
0.015451677 0.083541535 -0.007437356 -0.0708947 0.0048578936 -0.028590066 0.057686005 0.08265456
-0.084046476 0.0755054 0.05187603 -0.069196105 -0.035264943 0.011245252 -0.08076268 0.03999429
-0.04627116 -0.07660006 0.059043415 -0.041243397 -0.00014645432 -0.013613797 -0.04671518 0.06550992
0.049744796 -0.06971895 0.067698844 -0.067796886 0.059612326 -0.090182245 -0.016093396 0.06406332
-0.030947592 0.017273946 0.005147989 0.07497714 -0.030206986 0.050620444 0.0065798652 0.04171794
0.032288257 0.0558308 0.042504773 0.039008766 0.011496119 -0.014796065 -0.063309945 -0.08444809
0.0016670153 0.047098614 0.053476766 -0.02050536 0.029596543 -0.048498835 -0.060325764 0.05021002
-0.035606947 0.0057128817 -0.07830103 -0.071721055 0.08291489 -0.08475358 -0.05033166 0.023641102
0.024120301 -0.066525795 0.04521545 0.027968442 0.019842103 -0.046052646 -0.08597142 -0.06685036
-0.0793767 0.040154096 0.06447361 -0.051311977 -0.017872032 -0.0042000636 -0.021281047 0.009693272

bias f4 [32]
00000000: 84d2 5dbc 4a33 5cbc 5ea4 e1bc 4b7f 0e3d
00000010: 8c69 9a3b 1fdc 143e 875a ed3d eeb4 c33d
00000020: 0b00 3dbd d6be 36bd 20dd d73c 9a8e d73c
00000030: 8552 c13d ea35 87bc 3dcd a9bc 4145 67bd
00000040: 80b6 15bd 77bb 28bd d395 e83d e14e 5abc
00000050: 0640 df3d 2dd8 e23d 6d62 da3d e24a 84bc
00000060: 3155 58bd 26b1 143d 1278 c73d cb6c a73d
00000070: 64b1 f83c baa3 ecbc d284 a5bd bf28 8cbd
-0.01353896 -0.013439963 -0.027544197 0.034789365 0.004712289 0.14537095 0.11589532 0.09555994
-0.04614262 -0.04461559 0.026350558 0.026313115 0.094395675 -0.0165052 -0.020727748 -0.05646253
-0.036551 -0.041194405 0.11356702 -0.01332447 0.109008834 0.110763885 0.106633045 -0.016148988
-0.05281562 0.036301754 0.097396985 0.081750475 0.030358024 -0.028886665 -0.08081974 -0.06843709

weight f4 [4, 32]
00000000: afe0 323e b78e ef3d 128a d1bd 4693 28be
00000010: a701 14be 208b 103e bd02 473e 9f30 85bc
00000020: 951f 59be a8f2 12bd f236 3f3e 9242 c33d
00000030: e43d 2c3e 37fa 07be 0575 593d c0f8 38bc
00000040: dd48 003e 9052 18be d700 16be caac b0bd
00000050: 0e1e 5bbe 524d 87bd 03f2 a63d 0bca 103d
00000060: 19cd 5bbd bf31 223b 48c6 273e a052 713e
00000070: 0122 2cbe 7331 80bd 2690 d03d 5df6 f23d
00000080: cd09 eebd 896b c53c b833 0c3d a813 2d3e
00000090: 2242 9e3c 25f9 92be 517b 2bbe 57cf e33d
000000a0: 4c70 873e 4825 8f3d 3cef 94bd 06a7 4cbe
000000b0: bbaf 203d 9621 3fbd 3799 c1bd 8eee ce3d
000000c0: 739b 11be 7708 a5ba 1311 ad3a b16c 8bbd
000000d0: 27df 8a3e 2bea 443c 1e63 8fbd 4b4b 43be
000000e0: 96c1 e73a a3ed 8b3e 6a63 2ebd d3ee 6dbe
000000f0: 2afd 543d caa0 19be c6f2 273e c6df ebbd
00000100: cb18 aabc 0af2 5d3d 627a 0abe a5b0 36bd
00000110: 1353 8ebd 5067 c13d 5303 493d 987e b4bc
00000120: 8be7 3bbe 6072 f63c c9c5 2ebe 3082 983d
00000130: 8381 32be 64bb 593d d4dc cf3d 8e3c 32be
00000140: 713c 163e 751e 30be 1fb2 57be 7ef0 ecbc
00000150: d0cb 843d a37d 52be 89d4 ef3d e275 3e3e
00000160: a640 b938 d9b9 fdbd 144d 403d 979c 033e
00000170: 50b8 61be f617 4d3d 28ff d93d abfe 08be
00000180: f66a 563e c0ad 11be 1aaf f3bd 6c94 67be
00000190: 6300 4ebd 0c9f 3b3e 79c6 b33a c902 39bc
000001a0: dff7 17bd 2c19 44bd 43b1 193e 027a 30bd
000001b0: 0ed9 ebbd eed8 003d 3a17 c43d e02e ecbd
000001c0: 8d69 8ebd 8367 29be cdd2 44be 868a 643d
000001d0: eff6 8cbd 50b1 38be cb38 2b3e 24c9 b23d
000001e0: ee62 84bd 63a6 a3bd f97f 9cbe ac05 3e3e
000001f0: 93fc 173d 5b24 013e 2121 b23d 7b68 0d3e
0.17468522 0.116971426 -0.10231413 -0.1646243 -0.14453755 0.14115572 0.19434638 -0.016258536
-0.21203454 -0.035875946 0.18673304 0.09534182 0.16820484 -0.13279043 0.053090114 -0.011289775
0.12527795 -0.14875245 -0.14648758 -0.08626707 -0.21398184 -0.066065446 0.08151629 0.035348933
-0.053662393 0.002474889 0.16384232 0.23566675 -0.16809846 -0.06259432 0.10183744 0.11863396
-0.11622963 0.024099128 0.03422901 0.1690203 0.019318644 -0.28705707 -0.1674626 0.11123531
0.26452863 0.06989533 -0.07272193 -0.1998559 0.03923009 -0.04666289 -0.094530515 0.101040944
-0.14219455 -0.0012591024 0.0013203941 -0.068078406 0.27123377 0.012018721 -0.07001327 -0.1907169
0.0017681594 0.2732974 -0.042575277 -0.23235635 0.05199925 -0.15002742 0.16401204 -0.11517291
-0.020763775 0.054185905 -0.13523248 -0.044602055 -0.06949439 0.094435334 0.049075436 -0.02203302
-0.18350045 0.030083835 -0.17067637 0.07446706 -0.17432217 0.053157225 0.101495415 -0.17405912
0.14671494 -0.17199118 -0.21064042 -0.02892327 0.06484187 -0.20555739 0.1171046 0.18599656
8.833529e-05 -0.12388963 0.046948507 0.12852703 -0.22042966 0.05007168 0.1064437 -0.13378398
0.2093924 -0.14226437 -0.11898632 -0.22615212 -0.050293338 0.1832239 0.0013715766 -0.011292168
-0.037101623 -0.04787557 0.15009026 -0.043085106 -0.11516009 0.03145688 0.095747426 -0.11532378
-0.06953726 -0.16543393 -0.19221039 0.05579617 -0.06883036 -0.1803639 0.16720884 0.08729771
-0.06464182 -0.0799072 -0.30566385 0.18556851 0.037106108 0.12611525 0.08697725 0.13809387

bias f4 [4]
00000000: c109 c7bd 74b6 0e3e 3597 21be 23ef 15be
-0.09718657 0.13936788 -0.15780337 -0.14642005
